assets/models/stock_prediction_model.tflite (tflite, 141228 bytes, 7 tensors)

arith.constant3 f4 [1, 50]
0	0x3e23c855	0.1599439
1	0xbda1d08b	-0.079011045
2	0x3e9edac6	0.31026286
3	0x3e634981	0.22196008
4	0x3ea55bf3	0.32296714
5	0x3dff7217	0.12472933
6	0xbe4ac229	-0.19800629
7	0xbd0972fb	-0.03355692
8	0xbeaba0f9	-0.3352125
9	0x3ea15ffe	0.3151855
10	0xbd2869c6	-0.0411165
11	0xbe6ba6c3	-0.23012833
12	0x3e4a0562	0.19728616
13	0xbe5c5557	-0.2151693
14	0xbe82911a	-0.2550133
15	0x3db06d62	0.08614613
16	0x3e55e7a0	0.20889139
17	0xbdd5e5a2	-0.104441896
18	0x3eb58239	0.35450915
19	0xbe7ef84f	-0.2489941
20	0x3e70ddb3	0.23522072
21	0x3aeff798	0.0018308042
22	0xbd86de78	-0.06585401
23	0xbe9f6d2d	-0.31137982
24	0xbda57c53	-0.080803536
25	0xbdf8b7cb	-0.12144431
26	0x3eaac135	0.3335053
27	0x3c366d19	0.011134409
28	0x3e898bc7	0.26864454
29	0xbe758c3f	-0.23979281
30	0xbd1d5880	-0.03841448
31	0xbea082a1	-0.31349662
32	0xbc8bc1ce	-0.017060187
33	0xbeafd582	-0.3434258
34	0x3e3858da	0.18002644
35	0xbdff9863	-0.12480237
36	0xbe18e5ae	-0.14931366
37	0xbdc7fe1e	-0.09765266
38	0x3ce74ea0	0.028235734
39	0x3da1c236	0.07898371
40	0xbdaac2d2	-0.0833794
41	0xbe06a2ff	-0.13148116
42	0xbe5c2218	-0.2149738
43	0xbe39f9b1	-0.18161656
44	0x3e85db56	0.26143903
45	0xbeb10b1d	-0.3457879
46	0x3e86b62d	0.26310864
47	0x3eb3f065	0.35144344
48	0x3da59e65	0.08086852
49	0x3ea12e5f	0.3148069

arith.constant16 f4 [200, 1]
0	0x3e090b74	0.13383275
1	0xbc9a7b22	-0.018857542
2	0xbdd28096	-0.10278432
3	0x3e4b3bf4	0.19847089
4	0x3dd9db5b	0.10637542
5	0xbddac7a4	-0.1068261
6	0xbce63f5e	-0.028106388
7	0x3cb40a53	0.02197758
8	0x3ced8844	0.02899564
9	0xbc07d338	-0.008290105
10	0xbda62f7b	-0.08114525
11	0xbd7d8ce6	-0.06190195
12	0xbca27178	-0.019829497
13	0x3e5373ce	0.20649645
14	0xbd8448db	-0.064592086
15	0xbdc4fa0f	-0.096180074
16	0x3e70ddc2	0.23522094
17	0xbdbd8ff1	-0.0925597
18	0xbd78776f	-0.060660776
19	0x3e076a90	0.13224244
20	0x3dc457b3	0.0958704
21	0xbdd418a1	-0.1035626
22	0xbd1399be	-0.03603529
23	0xbd9d7c58	-0.07689732
24	0x3dfaa5da	0.12238665
25	0xbd50628a	-0.050875224
26	0xbe259d6f	-0.16173337
27	0xbd4634f0	-0.04839033
28	0x3dd50038	0.10400432
29	0x3dec0ff4	0.1152648
30	0xbda4a704	-0.08039668
31	0xbe455518	-0.19270742
32	0x3e0ade4d	0.13561364
33	0xbdaebb6e	-0.08531843
34	0x3df96814	0.121780545
35	0xbd2977cc	-0.041374013
36	0xbcd6a458	-0.026201412
37	0x3e0c3d16	0.13695177
38	0xbd7bfbc8	-0.061519414
39	0x3c415fc4	0.011802617
40	0x3e1f71b2	0.15570715
41	0x3e3443f8	0.17604053
42	0x3dcbeb92	0.09957041
43	0xbe2c66af	-0.16836046
44	0x3d624697	0.0552431
45	0x3e264847	0.16238509
46	0x3cd54c73	0.02603743
47	0x3e0e515c	0.13898224
48	0x3de333b4	0.11093846
49	0x3dc8bcee	0.098016605
50	0xbe2a321a	-0.16620675
51	0x3e22b1fd	0.1588821
52	0x3d976593	0.073924206
53	0xbc7d4f22	-0.015460761
54	0xbe388f09	-0.18023314
55	0x3ce40adf	0.027837215
56	0x3db318ae	0.08744942
57	0xbc96938a	-0.018380899
58	0xbd858486	-0.065194175
59	0x3d1d5260	0.038408637
60	0xbdb66e28	-0.089077294
61	0xbe12831b	-0.14307825
62	0xbd94cf83	-0.07266142
63	0x3dadd02f	0.084869735
64	0xbddd72d7	-0.108129196
65	0x3d0373de	0.03209292
66	0x3df38e2e	0.11892353
67	0xbe197917	-0.14987598
68	0xbd623b9c	-0.05523263
69	0x3d8c50e6	0.06851368
70	0xbdf1469b	-0.11781045
71	0x3cc3c564	0.023897834
72	0x3d1300df	0.035889503
73	0x3db8dca9	0.090264626
74	0x3da36ef4	0.07980147
75	0x3c931d1a	0.017958213
76	0xbdf8f1ce	-0.121554956
77	0x3e2474ad	0.16060133
78	0xbd47df12	-0.04879672
79	0x3e3cbe49	0.18431963
80	0x3e1ab643	0.1510859
81	0x3db68970	0.08912933
82	0xbdc84030	-0.09777868
83	0x3db475b9	0.08811516
84	0x3da0138c	0.07816228
85	0xbe1c271c	-0.15249294
86	0x3e16a03c	0.14709562
87	0xbe1c1d36	-0.15245518
88	0x3c96b1b4	0.018395282
89	0xbda07bc5	-0.07836107
90	0xbdb5cb24	-0.088766366
91	0xbbbb1322	-0.005709068
92	0xbbc5106a	-0.0060139196
93	0x3e16600a	0.14685073
94	0x3e2f81b4	0.17139322
95	0xbdc698e2	-0.09697129
96	0xbdd469af	-0.1037172
97	0xbdfcc8a5	-0.123429574
98	0x3d241f85	0.040069122
99	0x3c32a92b	0.010904591
100	0xbe0d8325	-0.13819559
101	0xbe2c2d3c	-0.1681413
102	0x3d7dd221	0.061967973
103	0x3dfe4324	0.1241515
104	0xbd21bb3a	-0.039485194
105	0xbe1afce3	-0.15135531
106	0xbe14eb66	-0.14542922
107	0xbe187fa1	-0.14892437
108	0x3dab1b4d	0.083548166
109	0x3dcd43f3	0.10022726
110	0xbdcec026	-0.10095243
111	0x3decb2f0	0.11557567
112	0xbe08e970	-0.133703
113	0xbd5c8c94	-0.053845003
114	0xbe491504	-0.19636923
115	0xbe3c0f6c	-0.18365258
116	0xbd6e282d	-0.058143783
117	0xbdabfdcb	-0.083980165
118	0xbde0cf41	-0.109770305
119	0xbe2449cd	-0.16043778
120	0x3ddf0666	0.10889892
121	0xbe3cfaec	-0.18455094
122	0xbe463bc8	-0.19358742
123	0x3e1782c9	0.14795984
124	0x3e072ae5	0.13199957
125	0xbdd127b9	-0.102126546
126	0x3e05af80	0.13055229
127	0x3d98d45a	0.07462378
128	0x3ce9df0f	0.028548745
129	0xbd8e342e	-0.06943546
130	0x3deb9d83	0.11504652
131	0x3ac04fa1	0.0014672169
132	0xbde8484d	-0.11341915
133	0xbc82d822	-0.0159722
134	0xbdb91fae	-0.090392455
135	0x3d6dfe50	0.05810386
136	0xbdcb0841	-0.09913684
137	0x3de44919	0.11146755
138	0x3dcdb6f0	0.10044658
139	0xbd2d1e4c	-0.04226522
140	0xbdddb859	-0.10826177
141	0x3df862ce	0.121282205
142	0xbdac6b32	-0.084188834
143	0xbca98fcb	-0.020698449
144	0xbd90661f	-0.07050728
145	0x3e06387c	0.13107485
146	0x3e4873a9	0.19575371
147	0xbd088e6c	-0.03333895
148	0x3e20ee1d	0.15715833
149	0xbe1e9d0a	-0.15489593
150	0x3da90f50	0.08254874
151	0xbdb65d9b	-0.089045726
152	0xbd18ebc4	-0.03733422
153	0x3dd4ede3	0.10396936
154	0x3cad6412	0.021165881
155	0x3c670dd1	0.014102415
156	0x3e0192e2	0.12653688
157	0x3bb879b4	0.0056297425
158	0xbe01cee6	-0.12676582
159	0xbe05fdd8	-0.13085115
160	0xbced689f	-0.028980551
161	0x3e5738f8	0.21017826
162	0xb8e6c1e3	-0.00011003369
163	0x3e7a3e4c	0.24437827
164	0xbc560ecb	-0.01306505
165	0x3ddf7488	0.109108984
166	0x3e51bbfd	0.20481868
167	0xbe0b20fc	-0.13586801
168	0x3e33dd24	0.17564827
169	0xbc5639c4	-0.013075296
170	0xbd81b693	-0.063336514
171	0x3db065f0	0.08613193
172	0x3e0e24cb	0.13881223
173	0x3e0d7c23	0.13816886
174	0xbda3d4a3	-0.079995416
175	0xbcc602b4	-0.02417121
176	0xbca5a0e1	-0.020218315
177	0xbe2929cd	-0.16519852
178	0xbe3494c5	-0.17634876
179	0xbc17bf42	-0.009261908
180	0xbb42de68	-0.0029734615
181	0xbdd01868	-0.10160905
182	0x3e096e84	0.13421065
183	0x3e4d9ee9	0.2008015
184	0xba8b848a	-0.0010644358
185	0x3ddd40dd	0.10803387
186	0xbdf9c3af	-0.12195527
187	0x3cfba334	0.03071747
188	0x3b4d5dea	0.0031336495
189	0xb7c45a8c	-2.3407185e-05
190	0x3b29c22c	0.002590309
191	0x3cc6416a	0.024201114
192	0xbd80e3cf	-0.06293451
193	0x3e2138f9	0.1574439
194	0x3e4b9d80	0.198843
195	0x3dca37c1	0.098739155
196	0xb93a5726	-0.00017770808
197	0xbb293e17	-0.0025824362
198	0xbe10d5ef	-0.14144109
199	0x3d14909f	0.036270734

arith.constant17 f4 [200, 50]
0	0xbd87318e	-0.06601249
1	0xbcb173d6	-0.02166168
2	0xbbf77b63	-0.0075525506
3	0x3dcecfb1	0.10098208
4	0xbc5c5c88	-0.013449796
5	0x3d80975f	0.06278872
6	0xbc3b5776	-0.0114344265
7	0xbd8a3441	-0.06748248
8	0xbd6f97ff	-0.058494564
9	0x3d77d39b	0.060504537
10	0x3e0ad93d	0.13559432
11	0xbbf5a1f1	-0.0074961116
12	0xbcf24695	-0.029574672
13	0x3d0b8826	0.03406539
14	0xbda91210	-0.08255398
15	0x3dd26b7b	0.102744065
16	0x3dc883f6	0.097907946
17	0x3dcdaae8	0.100423634
18	0xbd6d7a4f	-0.05797797
19	0xbc0026fa	-0.007821793
20	0xbcfe2f26	-0.031028342
21	0x3dc60a8c	0.096699804
22	0xbdfbf25e	-0.12302087
23	0x3dbd3aaa	0.09239705
24	0xbc50fbec	-0.012755375
25	0xbcad18d0	-0.021129996
26	0xbd4eccb1	-0.050488178
27	0xbc007792	-0.007841008
28	0x3d898d5d	0.06716416
29	0x3d438370	0.04773277
30	0x3d05ff5f	0.032714244
31	0x3dbfb15f	0.09360003
32	0x3d75d13d	0.060014
33	0xbc92f751	-0.017940195
34	0x3d015c22	0.031582005
35	0x3e023f78	0.12719524
36	0xbaf51acd	-0.0018700004
37	0xbdc8ed1d	-0.09810851
38	0xbd606912	-0.054787703
39	0x3aabf46c	0.0013119108
40	0xbd402f0c	-0.046919867
41	0xbd0daf68	-0.03459111
42	0xbafebf3a	-0.0019435652
43	0xbd8062af	-0.062688224
44	0xbcf41ade	-0.029797968
45	0x3c0bb7af	0.00852768
46	0x3d3b9550	0.045796692
47	0x3c25d9b7	0.010122708
48	0x3d876b70	0.06612289
49	0x3ba0147a	0.0048852535
50	0xbdcd5443	-0.10025837
51	0x3dacd029	0.08438141
52	0xbc6c1fdc	-0.014411893
53	0x3caa1505	0.020761976
54	0x3b14f9c0	0.002273187
55	0x3ace5556	0.0015741985
56	0x3d531a77	0.05153891
57	0xbd955fcb	-0.07293662
58	0x3b5c443e	0.0033610011
59	0xbd8e9e3b	-0.06963774
60	0x3d80c6f4	0.06287947
61	0xbd85e9f6	-0.06538765
62	0xbc447692	-0.01199116
63	0x3d530185	0.05151512
64	0xbc0a7024	-0.008449588
65	0x3ce13dbe	0.027495261
66	0xbd578bea	-0.052623667
67	0xbd413923	-0.04717363
68	0x3d70be2a	0.058775105
69	0x3d17c6a4	0.037054673
70	0xbe00000c	-0.12500018
71	0xbd06e4a6	-0.0329329
72	0x3d7b28dd	0.061318267
73	0x3c7c2451	0.015389518
74	0xbe0bbd82	-0.1364651
75	0xbd39ea24	-0.04538931
76	0xbe04f5f9	-0.12984456
77	0xbca3f0ca	-0.020012278
78	0x3dbe4bec	0.09291825
79	0x3e297293	0.16547613
80	0xbdbeef22	-0.09322955
81	0xbdcc3498	-0.09970969
82	0x3d6d1997	0.057885733
83	0xbdd83c8f	-0.10558426
84	0x3e13dd59	0.14439906
85	0x3d477c65	0.048702616
86	0xbe04e9b6	-0.12979779
87	0xbcf4e846	-0.029895913
88	0xbdf5dbfe	-0.12004851
89	0xbd9df771	-0.07713211
90	0x3d909480	0.07059574
91	0x3d9dd93c	0.0770745
92	0xbdf4a349	-0.11945207
93	0x3cb0d163	0.021584218
94	0xbdb0e624	-0.08637646
95	0xbd2d9f70	-0.04238838
96	0x3ca64824	0.020298071
97	0x3d2cf8b3	0.042229366
98	0x3c2905d6	0.010316333
99	0x3d029205	0.031877536
100	0x3bfd92ea	0.007738461
101	0x3cf91a48	0.03040804
102	0xbcdd2cf7	-0.02699898
103	0xbdd57d4c	-0.10424289
104	0xbda7fea1	-0.082028635
105	0xbd807a26	-0.06273298
106	0xbd4b2436	-0.04959508
107	0x3dfa1271	0.12210549
108	0x3c096286	0.008385306
109	0xbd3c6f5e	-0.046004646
110	0xbde0b758	-0.1097247
111	0xbcca2271	-0.024674626
112	0xbe0e7b01	-0.1391411
113	0xbce78506	-0.028261673
114	0xbcfee02b	-0.031112751
115	0xbc227841	-0.009916366
116	0x3da64bb6	0.081199095
117	0xbbc1c9ac	-0.0059139337
118	0xbe1f1374	-0.15534765
119	0x3b5b7a4d	0.0033489645
120	0xbcab8474	-0.020937182
121	0x3df333bf	0.11875104
122	0x3d5bb362	0.05363787
123	0x3da0fb9f	0.07860493
124	0x3defd65f	0.1171081
125	0xbe259971	-0.16171815
126	0x3dbc9e02	0.09209825
127	0x3d3fa235	0.046785552
128	0xbe006892	-0.1253989
129	0x3bba9a14	0.005694637
130	0xbd030335	-0.03198548
131	0xbc3c6279	-0.011498087
132	0xbd858920	-0.06520295
133	0xbcb8fc2f	-0.022581188
134	0x3d61d93c	0.05513881
135	0xbca037ae	-0.0195578
136	0x3d1f4be9	0.038890753
137	0xbc8f224b	-0.017472407
138	0x3b964769	0.0045861495
139	0x3e284460	0.16432333
140	0x3cdf9063	0.027290529
141	0xbdf56cc4	-0.11983636
142	0xbcb46e7a	-0.022025336
143	0xbe1d7895	-0.1537803
144	0x3d8fc4b3	0.07019939
145	0x3b8b22f7	0.0042461115
146	0x3cb9bb04	0.022672184
147	0x3c97bd90	0.018523008
148	0xbcda68df	-0.026661335
149	0x3e189ec7	0.14904319
150	0xbde9ac45	-0.11409811
151	0x3c822b49	0.01588978
152	0xbd0add58	-0.033902496
153	0x3c92e4cf	0.01793137
154	0xbd939a3e	-0.07207154
155	0xbd601a5a	-0.05471263
156	0xbd971d52	-0.07378639
157	0xba6ab9cc	-0.00089540775
158	0xbc327705	-0.010892634
159	0x3d0b39ca	0.03399066
160	0xbe15e1a4	-0.14636856
161	0x3e375954	0.1790517
162	0xbd2c19de	-0.042016856
163	0x3da33a88	0.07970148
164	0xbd3b5c6a	-0.04574243
165	0xbe0f28df	-0.13980435
166	0x3d7105d5	0.058843452
167	0xbe099c37	-0.13438497
168	0xbc8db166	-0.017296504
169	0xbd3fff74	-0.04687448
170	0xbc9b6fb0	-0.018974155
171	0xbc8f63b3	-0.017503595
172	0xbd8c7179	-0.06857581
173	0x3dd8c538	0.105844915
174	0xbd8aac30	-0.067711234
175	0xbe0346d1	-0.12819983
176	0x3d63a318	0.05557546
177	0x3cd365ec	0.025805436
178	0xbd23a6ad	-0.039953876
179	0xbd1c828a	-0.03821043
180	0xbc5861c1	-0.0132069
181	0x3d35b7eb	0.04436485
182	0x3d9af629	0.075664826
183	0xbe075ae4	-0.13218266
184	0xbe51f4f7	-0.20503603
185	0x3d66027f	0.056154724
186	0x3d13a0cb	0.036042016
187	0x3d116b94	0.035502985
188	0x3ce38a75	0.027775982
189	0xbd665a62	-0.05623854
190	0xbd655082	-0.05598498
191	0xb84a0e23	-4.817372e-05
192	0xbd68b67b	-0.056814652
193	0x3d397b33	0.045283508
194	0xbdbf4f97	-0.093413524
195	0xbdfb441c	-0.1226885
196	0x3db9c332	0.09070434
197	0x3ce2a798	0.027667806
198	0x3d780edd	0.06056105
199	0x3c2567e2	0.010095568
200	0xbd05b085	-0.032639045
201	0xbe1b0bb0	-0.15141177
202	0xbe0b9a4f	-0.13633083
203	0x3c4eed83	0.012629869
204	0xbd8568c7	-0.06514125
205	0xbc4f13b9	-0.01263898
206	0x3cf86d81	0.030325653
207	0xbd5781ac	-0.0526139
208	0x3d29e8bc	0.04148172
209	0xbe1242ff	-0.1428337
210	0xbd36d2ac	-0.044634506
211	0xbdfa5746	-0.12223677
212	0x3be2ab5b	0.0069174
213	0xbbfca75d	-0.007710381
214	0x3d1b74ee	0.03795331
215	0x3e0d0a01	0.13773347
216	0xbd691ec5	-0.05691411
217	0x3d1a5b1e	0.037684552
218	0xbd678e53	-0.056532215
219	0x3c44b81a	0.012006784
220	0x3da6cfb6	0.081450865
221	0xbca2e521	-0.019884648
222	0x3d0b847e	0.0340619
223	0xbdd8ff5e	-0.105955824
224	0xbce9ced6	-0.02854101
225	0xbdb8cce1	-0.090234526
226	0x3d6b0057	0.05737337
227	0xbd74cf0c	-0.059767768
228	0x3c3e949f	0.011632114
229	0xbcbfea83	-0.023427254
230	0xbdc15d00	-0.094415665
231	0x3d2e05a8	0.042485863
232	0x3d2bb86c	0.041923925
233	0xbc32c11c	-0.010910299
234	0x3e0b5d3f	0.1360979
235	0xbcebbda6	-0.028776955
236	0x3ccdbd39	0.025114642
237	0xbd1eb680	-0.038748264
238	0x3dded0e7	0.10879689
239	0xbb0223de	-0.0019857804
240	0xba43f29e	-0.00074748124
241	0x3de1b323	0.11020496
242	0xbd09386e	-0.03350108
243	0x3d1becbc	0.038067564
244	0xbce8590f	-0.028362779
245	0xbd691971	-0.05690903
246	0x3e2d6fa5	0.1693712
247	0xbdc8973d	-0.097944714
248	0x3d93f49f	0.07224392
249	0xbe159ecf	-0.14611362
250	0x3cb6ae55	0.022299925
251	0xbb2dc659	-0.002651593
252	0xbdc3ec21	-0.095665224
253	0x3d5dd867	0.054161455
254	0xbca8e983	-0.02061916
255	0x3cafcbd3	0.021459496

sequential_1/lstm_1/while/lstm_cell_1/add_1/ReadVariableOp f4 [200]
0	0x3b8cbdc9	0.004295085
1	0x3bb49ffe	0.0055122366
2	0xba5a86e3	-0.000833614
3	0x3d40c2f8	0.047060937
4	0xbcab849d	-0.020937258
5	0x3cab10a6	0.020881962
6	0xbc71c1c5	-0.014755671
7	0x3cd3de1b	0.025862744
8	0xbbfb60a4	-0.0076714326
9	0xbb8fa37b	-0.004383502
10	0x3bab7d0a	0.0052334117
11	0x3cb55c68	0.02213879
12	0x3c1d0f9f	0.009586244
13	0x3c14dc2d	0.009085697
14	0x3c4ded07	0.012568719
15	0x3c53ee02	0.012935163
16	0x3b80af21	0.003927127
17	0xbb89f589	-0.0042101783
18	0x3c0cf529	0.008603373
19	0x3c8babd1	0.017049702
20	0xba93a7c4	-0.0011265208
21	0x3a75674c	0.0009361401
22	0x3cd099c4	0.025463946
23	0x3b5e47b7	0.0033917257
24	0xba374aab	-0.00069920224
25	0x3b79bfd2	0.0038108719
26	0xbc899ecc	-0.016799353
27	0xbc314ed2	-0.010822015
28	0xbc8139e8	-0.015774682
29	0x3cfcafb1	0.030845495
30	0x3c54b451	0.012982444
31	0xbc8ae15a	-0.01695316
32	0x3c94d25e	0.018166717
33	0x3bd4792a	0.0064841704
34	0x3a1ba51d	0.00059373846
35	0x3ba44b62	0.005013869
36	0xbc3abbc9	-0.0113973105
37	0x3be95e6e	0.0071218526
38	0x3bbe9d27	0.005817074
39	0xbc8b8a30	-0.017033666
40	0x3c706431	0.014672325
41	0x3d018c2a	0.03162781
42	0xbc607533	-0.0136998175
43	0xbcc57379	-0.024102913
44	0x3d30f499	0.043202017
45	0x3cdbb6bc	0.026820533
46	0x3c7d0c0d	0.015444768
47	0xbcabb791	-0.020961555
48	0xbb8193fc	-0.0039544087
49	0x3c1b0191	0.009460823
50	0x3f7c4355	0.9854024
51	0x3f7ccdc6	0.98751485
52	0x3f7c8089	0.9863363
53	0x3f8081da	1.0039628
54	0x3f7a8191	0.9785395
55	0x3f813ab6	1.0096042
56	0x3f7bf6fb	0.9842374
57	0x3f815172	1.010298
58	0x3f7cb63a	0.98715556
59	0x3f7d79ed	0.9901417
60	0x3f7d30ff	0.9890289
61	0x3f812415	1.0089136
62	0x3f7ed586	0.9954456
63	0x3f7abdc1	0.9794579
64	0x3f80728b	1.0034956
65	0x3f7d7881	0.99012
66	0x3f800e2f	1.0004328
67	0x3f7d9019	0.99048
68	0x3f80198a	1.0007794
69	0x3f808020	1.0039101
70	0x3f7dd8a5	0.991587
71	0x3f7dfcd7	0.9921393
72	0x3f81717e	1.011276
73	0x3f7cd42e	0.9876126
74	0x3f7c6eb2	0.9860641
75	0x3f7af33c	0.98027396
76	0x3f7b76d6	0.98228204
77	0x3f7d285e	0.9888972
78	0x3f7b8441	0.9824868
79	0x3f7fbae6	0.9989456
80	0x3f80582e	1.002691
81	0x3f7c5214	0.9856274
82	0x3f802f3a	1.0014412
83	0x3f80519f	1.0024909
84	0x3f7c6e7b	0.9860608
85	0x3f7c0dfb	0.9845883
86	0x3f7ca5f1	0.98690706
87	0x3f7e14d2	0.9925052
88	0x3f7daef2	0.9909507
89	0x3f7b710c	0.9821937
90	0x3f7ea81c	0.99475265
91	0x3f7c84ca	0.9864012
92	0x3f7caab4	0.9869797
93	0x3f799696	0.974954
94	0x3f806a38	1.0032415
95	0x3f817229	1.0112964
96	0x3f80a02b	1.0048879
97	0x3f7a3354	0.9773457
98	0x3f7d2127	0.9887871
99	0x3f7c31f2	0.9851371
100	0x3beaf74c	0.0071705934
101	0x3b8b0952	0.0042430544
102	0xbb9b12a0	-0.004732445
103	0xbb01252e	-0.0019705999
104	0xba03cb2f	-0.000502753
105	0xb882032b	-6.199473e-05
106	0x3bdf69cf	0.0068180333
107	0x37bf02d2	2.2770288e-05
108	0xbb737ed4	-0.0037154453
109	0xbb2f5f51	-0.0026759694
110	0x3b97f097	0.004636835
111	0x39587b24	0.00020645239
112	0x3b684036	0.0035438663
113	0xb807ae98	-3.234911e-05
114	0x3bd7d2fb	0.00658643
115	0x3c0536eb	0.008130769
116	0x3b365b13	0.002782528
117	0x3a8c5a63	0.001070809
118	0x3a02371b	0.0004967318
119	0x3b0ac5c5	0.0021175009
120	0xbab32fc3	-0.001367085
121	0x3bf944b8	0.007607069
122	0x3a1eedb3	0.00060626416
123	0xbbda45a4	-0.006661134
124	0xbbd8d474	-0.0066171233
125	0x3bd98ea2	0.0066393176
126	0xbb899fa3	-0.0041999384
127	0xbb22c60e	-0.0024837288
128	0xbaa56a2a	-0.001262014
129	0x3ae5da0c	0.0017536297
130	0xba94b747	-0.0011346125
131	0x3afd87df	0.0019342861
132	0x3b1779a1	0.0023113268
133	0x3ae1fe8d	0.0017242
134	0x3bd5e419	0.0065274355
135	0xbac9842a	-0.0015374471
136	0x3b927d91	0.004470535
137	0xbbae77ce	-0.0053243404
138	0xbbca8b9b	-0.006181193
139	0xbb01a6a1	-0.0019783156
140	0x3b838349	0.004013453
141	0xbbaa6031	-0.005199455
142	0x3b1fa6a6	0.0024360805
143	0xbb24fbf2	-0.0025174585
144	0x3b2278c3	0.0024791218
145	0x392e6ef4	0.00016635266
146	0xbb3fa07b	-0.002923994
147	0xba81ebfc	-0.0009912248
148	0xbbf7c1f9	-0.007560965
149	0x3b813ea1	0.0039442335
150	0x3b7c84bd	0.0038531267
151	0x3bc4544c	0.0059914943
152	0xbaa643d2	-0.0012685007
153	0x3d400ad1	0.046885315
154	0xbca85731	-0.020549389
155	0x3ca54c4b	0.02017798
156	0xbc6f89dd	-0.0146202715
157	0x3cd233d7	0.025659485
158	0xbbf113a9	-0.00735708
159	0xbb905294	-0.0044043753
160	0x3bac9aa2	0.005267457
161	0x3ca6ff09	0.020385282
162	0x3c114e33	0.008868742
163	0x3bb0e535	0.0053984174
164	0x3c3ab2b2	0.011395143
165	0x3c406c1f	0.011744528
166	0x3bbdf2b1	0.0057967533
167	0xbb8a0af4	-0.0042127315
168	0x3beb9146	0.007188949
169	0x3c861c3a	0.016370881
170	0xba936598	-0.0011245487
171	0x3a16f393	0.0005758341
172	0x3cc7c95b	0.024388006
173	0x3b40a20c	0.0029393462
174	0xba737833	-0.00092876254
175	0x3b71a50f	0.0036872064
176	0xbc87aedc	-0.016562872
177	0xbc30b697	-0.01078572
178	0xbc78c2a2	-0.015183123
179	0x3cfe6801	0.031055452
180	0x3c4ab59a	0.012372399
181	0xbc8c5861	-0.017131986
182	0x3c8f16ce	0.017466929
183	0x3b97c444	0.004631551
184	0xb8fcca5c	-0.00012053989
185	0x3b50568f	0.0031789874
186	0xbc390366	-0.011292314
187	0x3bdd07e8	0.0067453273
188	0x3bb9a61d	0.005665554
189	0xbc8dbfab	-0.017303308
190	0x3c885bfa	0.01664542
191	0x3d074994	0.033029154
192	0xbc60a373	-0.013710844
193	0xbcccf3e2	-0.025018636
194	0x3d271b14	0.040797308
195	0x3cd367d2	0.025806341
196	0x3c7bb42e	0.015362782
197	0xbc9cb517	-0.01912932
198	0xbba40e23	-0.005006568
199	0x3c29caa5	0.010363256

arith.constant21 f4 [200, 50]
0	0xbdea0fcc	-0.11428794
1	0xbdb5b083	-0.088715576
2	0x3d91792b	0.07103189
3	0x3d817b18	0.063223064
4	0xbbbb08a7	-0.0057078185
5	0x3cdf428a	0.027253408
6	0x3ca32865	0.019916723
7	0xbe177034	-0.14788896
8	0xbaee9662	-0.0018202777
9	0xbcb759a3	-0.02238161
10	0x3d816ae6	0.063192174
11	0x3e275606	0.16341409
12	0xbe23312d	-0.15936728
13	0xbdc66c75	-0.09688655
14	0x3dc6b6f6	0.09702866
15	0xbca5e839	-0.020252334
16	0x3c9e1def	0.019301383
17	0x3d268156	0.040650688
18	0xbb8c14d5	-0.0042749443
19	0x3d50190e	0.050805144
20	0xbddc9b3b	-0.10771795
21	0x3e061431	0.1309364
22	0x36c19708	5.7694306e-06
23	0x3d1e00b9	0.038574908
24	0x3ded8019	0.11596698
25	0x3e0d466a	0.13796392
26	0xbb9fe94c	-0.004880106
27	0xbdaa67d2	-0.083205834
28	0xbd8a6ea9	-0.06759388
29	0x3de11f5f	0.10992312
30	0xbdf4c0ee	-0.11950861
31	0xbdc92bd8	-0.09822816
32	0xbb8a6114	-0.0042229984
33	0xbc8d8ecc	-0.017280005
34	0xbe2e0589	-0.16994299
35	0xbd83f264	-0.06442717
36	0xbe0ea980	-0.13931847
37	0xbc109b7e	-0.008826135
38	0x3da24df7	0.07925027
39	0xbc3c254c	-0.011483502
40	0xbd6f1080	-0.058365345
41	0x3d11cd86	0.035596393
42	0x3c59040c	0.013245594
43	0xbd9046ff	-0.070447914
44	0x3de5c830	0.11219823
45	0x3d21afcf	0.039474305
46	0x3daf4932	0.08558883
47	0xbddee5b7	-0.108836584
48	0xbcec4647	-0.028842105
49	0x3df17354	0.11789575
50	0xbd072c5d	-0.033001292
51	0x3c473bea	0.012160281
52	0xbcdad946	-0.026714932
53	0x3c157674	0.00912248
54	0x3e197ef6	0.14989838
55	0xbe1fda8e	-0.15610716
56	0x3c0952c2	0.008381547
57	0x3d3d0487	0.046146896
58	0xbcb5f451	-0.022211226
59	0xbe0e1d87	-0.13878451
60	0xbdd40f36	-0.10354464
61	0x3da1addb	0.078944884
62	0xbcda7124	-0.026665278
63	0xbc200b2b	-0.009768288
64	0x3defa4fd	0.11701391
65	0xbda79277	-0.08182233
66	0xbca895a6	-0.02057917
67	0xbe11610a	-0.14197174
68	0x3dd678c9	0.10472257
69	0xbcb98700	-0.02264738
70	0x3c6a936a	0.014317373
71	0x3d3492ce	0.044085316
72	0x3df059d0	0.117358804
73	0xbdd92bc5	-0.106040515
74	0x3d844062	0.064575925
75	0xbd390531	-0.045170967
76	0xbcb84f63	-0.022498792
77	0xbe014f86	-0.12627992
78	0x3d3ef640	0.04662156
79	0xbdc1844e	-0.09449063
80	0xbc3a3858	-0.011365972
81	0xbd4cefca	-0.05003337
82	0x3d7a6711	0.061133448
83	0xbd068413	-0.0328408
84	0xbcb22b22	-0.021749083
85	0xbbe84358	-0.007088106
86	0xbde221d8	-0.110416114
87	0x3dfea1a5	0.12433175
88	0x3e12be01	0.14330293
89	0xbdc4b1a7	-0.09604197
90	0xbe2410df	-0.16022061
91	0xbd0a1402	-0.033710487
92	0xb9e902bd	-0.00044443263
93	0x3e1eead2	0.15519264
94	0x3dd0e8b7	0.10200637
95	0x3d185595	0.037190992
96	0xbdff8661	-0.124768026
97	0x3de01fba	0.10943551
98	0x3df12f15	0.11776558
99	0x3d9344c1	0.07190848
100	0x3d076f27	0.033064988
101	0x3d08ef8d	0.03343158
102	0x3d721888	0.059105426
103	0x3de867c8	0.1134792
104	0x3d26fe7a	0.04077003
105	0xbdea60e6	-0.11444263
106	0xbd6fe8b7	-0.058571544
107	0xbdfab628	-0.12241775
108	0xbde44f06	-0.11147885
109	0xbd425fc1	-0.0474546
110	0xbd1f3aa4	-0.038874283
111	0xbe031a01	-0.12802888
112	0xbe06413c	-0.13110822
113	0xbd178819	-0.036995027
114	0x3ca3619c	0.019944005
115	0xbda6a396	-0.0813667
116	0xbdad93e3	-0.08475473
117	0x3de74212	0.11291899
118	0x3d0d9829	0.03456894
119	0xbd9fc817	-0.07801836
120	0x3e48c4b0	0.1960628
121	0xbdc35273	-0.0953721
122	0x3d2476d9	0.040152404
123	0xbabf8ec8	-0.0014614696
124	0x3e05d80f	0.13070701
125	0xbc970139	-0.0184332
126	0xbe078aab	-0.13236491
127	0xbdabc4ec	-0.08387169
128	0x3b00de69	0.0019663817
129	0x3def5459	0.1168601
130	0x3d9a22df	0.075261824
131	0x3e144fb0	0.14483523
132	0xbca2b7a0	-0.01986295
133	0x3dfbea28	0.12300521
134	0x3d0d1336	0.03444215
135	0x3e0dfab8	0.13865173
136	0x3d27f5e1	0.041005973
137	0x3e10b3c9	0.14131083
138	0x3da60c6a	0.081078365
139	0x3bce944a	0.0063042985
140	0xbdd1d04a	-0.10244806
141	0xbdba9ab7	-0.09111541
142	0xbd8679bc	-0.06566188
143	0x3d33a6a5	0.043860096
144	0xbd86d599	-0.06583709
145	0x3dd658d8	0.10466164
146	0x38c7e18c	9.531071e-05
147	0xbdeb2e49	-0.114834376
148	0x3e03ee52	0.1288388
149	0xbb04b0c6	-0.0020246967
150	0xbdfa88c6	-0.12233119
151	0x3daf91eb	0.085727535
152	0xbdf98343	-0.12183239
153	0x3dd0572f	0.10172879
154	0xbcfe4b69	-0.031041818
155	0xbda2029f	-0.07910656
156	0xbd0c4e65	-0.03425445
157	0xbdd15651	-0.10221542
158	0x3d2d9bdc	0.042384967
159	0xbd650ae3	-0.055918586
160	0x3dfce853	0.12349
161	0xb9e9297f	-0.0004447214
162	0x3dcf247d	0.101143815
163	0xbc8660cc	-0.016403578
164	0x3de79844	0.11308339
165	0x3ce48333	0.027894592
166	0x3d070f73	0.032973718
167	0x3d7ba2f9	0.06143472
168	0xbdd5d788	-0.104415
169	0xbd3538fd	-0.0442438
170	0xbd6911b3	-0.056901645
171	0xbdb41b81	-0.087943085
172	0xbdcd5498	-0.100259006
173	0x3e0cd8e0	0.13754606
174	0xbdcc4cce	-0.09975587
175	0xbde65c60	-0.11248088
176	0xbd770c73	-0.060314607
177	0xbcaf14c9	-0.021372216
178	0xbcdcba7c	-0.026944391
179	0x3dc7a31a	0.09747906
180	0x3cfba041	0.030716063
181	0xbbe627b8	-0.007023778
182	0x3cad8aa3	0.021184271
183	0xbd852cfd	-0.065027215
184	0xbd932a55	-0.071858086
185	0x3e0aa637	0.13539968
186	0x3e05f627	0.13082181
187	0xbbb63b69	-0.0055612815
188	0x3de9dc7f	0.114190094
189	0x3dc39799	0.09550399
190	0xbc7e307c	-0.015514489
191	0xbd4fbccb	-0.050717156
192	0xbdcc947c	-0.09989259
193	0xbdaa07a2	-0.08302237
194	0xbdbad6ca	-0.09122999
195	0x3dedc15a	0.116091445
196	0x3de38445	0.11109213
197	0xbd82d096	-0.06387441
198	0x3cfde530	0.030993074
199	0xbc1ed266	-0.009693718
200	0xbdda4fa1	-0.10659719
201	0x3d853bc7	0.06505542
202	0xbcc6cb4b	-0.02426686
203	0x3b035ccc	0.0020044325
204	0xbdb8a4a7	-0.0901578
205	0xbde1ec2a	-0.11031373
206	0x3e0fbc30	0.14036632
207	0xbbe3fab9	-0.0069573787
208	0x3df2c414	0.11853805
209	0xbe0ad922	-0.13559392
210	0xbdac26c0	-0.084058285
211	0xbd4ac2fd	-0.04950236
212	0x3d8430d8	0.06454629
213	0x3d089d02	0.03335286
214	0x3e20ca83	0.15702252
215	0x3d2ef258	0.042711586
216	0xbe0420a6	-0.1290308
217	0xbd9d85e0	-0.0769155
218	0xbdff0afd	-0.12453268
219	0x3b54550f	0.0032399332
220	0x3cb90028	0.022583082
221	0x3de7cef7	0.11318772
222	0x3d2f63df	0.042819854
223	0xbe0e3dce	-0.13890764
224	0xbd93736c	-0.07199749
225	0xbd86bf6c	-0.065794796
226	0xbe18a7a2	-0.14907697
227	0x3dc25cff	0.09490394
228	0x3c8a5a42	0.016888741
229	0xbe00e7ab	-0.12588374
230	0xbdb613a8	-0.08890468
231	0xbd5a4ef7	-0.053297963
232	0xbc6db3aa	-0.014508167
233	0xbc64c40c	-0.013962757
234	0xbe0f64c8	-0.14003289
235	0xbc92469a	-0.017855931
236	0xbdcbefef	-0.09957873
237	0x3da63811	0.081161626
238	0xbcc4cb86	-0.024022829
239	0xbe03def3	-0.12878017
240	0x3cafa53c	0.021441095
241	0xbcd66c40	-0.026174664
242	0x3e0e9ecd	0.13927765
243	0xbdc9c71d	-0.09852431
244	0x3e294313	0.16529493
245	0x3d1822c2	0.037142523
246	0xbe1b8778	-0.15188396
247	0xbc9891a1	-0.018624129
248	0x3d8ad179	0.06778235
249	0x3dcb9053	0.09939637
250	0x3d070c06	0.03297045
251	0xbdf21b6b	-0.11821636
252	0x3e0e4de7	0.13896905
253	0x3df96230	0.12176931
254	0xbd37108a	-0.044693507
255	0xbd96c162	-0.073611036

arith.constant22 f4 [200, 50]
0	0x3d967a7c	0.07347581
1	0xbdac4e84	-0.08413413
2	0x3d78fc49	0.060787473
3	0xbd8bb410	-0.068214536
4	0xbcfac144	-0.030609734
5	0x3da62c8f	0.081139676
6	0xbd2916e1	-0.041281585
7	0x3d0fdf3c	0.035125002
8	0x3ce7291e	0.028217848
9	0x3c940d78	0.018072829
10	0xbd1f8207	-0.038942363
11	0xbdabb919	-0.08384914
12	0xbdcab445	-0.09897665
13	0xbd9ac104	-0.07556346
14	0xbb5bd0cf	-0.0033541208
15	0xbe1f6b9d	-0.15568395
16	0x3ae2c567	0.0017301262
17	0xbdb2a3e3	-0.08722665
18	0xbc131815	-0.00897791
19	0xbce25a48	-0.02763094
20	0x3b1e6fb3	0.0024175465
21	0xbd78ff48	-0.06079033
22	0xbd168e8f	-0.03675705
23	0xbd925be4	-0.07146433
24	0x3cf60f65	0.030036638
25	0x3cc65eb5	0.024215082
26	0xbccb9334	-0.024850465
27	0x3ca6aee1	0.02034706
28	0x3d1ffbd7	0.039058533
29	0x3d692bea	0.056926645
30	0x3ca53310	0.02016595
31	0x3dc82aab	0.09773763
32	0x3d72f085	0.05931141
33	0x3c4cbbdf	0.012495964
34	0xbdf1d11a	-0.11807461
35	0x3d87c413	0.06629195
36	0x3af3faf7	0.0018614222
37	0x3c964af6	0.018346291
38	0xbe0374d3	-0.12837534
39	0xbd47168f	-0.048605498
40	0x3de3428e	0.11096679
41	0x3c20d2bc	0.009815868
42	0xbcc20ded	-0.023688281
43	0xbcaf6311	-0.021409543
44	0xbd164ef0	-0.036696374
45	0xba7b6bd7	-0.00095909595
46	0xbd067130	-0.032822788
47	0x3da22e86	0.0791903
48	0xbd3b3da1	-0.04571307
49	0x3d279470	0.040913045
50	0xbcbe9fac	-0.023269497
51	0xbe00349e	-0.12520072
52	0xbdab4f32	-0.08364715
53	0x3ca33f09	0.019927518
54	0xbe0f115f	-0.1397147
55	0xbe548ee9	-0.20757641
56	0x3dcb0acc	0.09914169
57	0xbde0714a	-0.10959108
58	0xbd74ad21	-0.05973542
59	0xbe157d42	-0.14598563
60	0x3e1045ba	0.14089099
61	0xbdd77bd9	-0.10521669
62	0xbd66bfdb	-0.05633531
63	0x3df1930f	0.11795627
64	0x3b53ff68	0.003234828
65	0xbd0ab233	-0.03386135
66	0x3d1da47b	0.03848694
67	0xbdf11236	-0.117710516
68	0xbde991f7	-0.11404794
69	0xbde077b8	-0.109603345
70	0x3c3f58c7	0.011678881
71	0x3c5e6df9	0.013576024
72	0xbd32234d	-0.043490697
73	0xbd26041a	-0.040531255
74	0xbc879c7a	-0.016554106
75	0xbc8e3553	-0.017359411
76	0xbdd175a9	-0.1022752
77	0xbe7055c1	-0.23470213
78	0x3d09daa7	0.03365579
79	0x3d9aba8d	0.07555113
80	0x3ddcc1f6	0.107791826
81	0xbcc024be	-0.02345502
82	0x3e224544	0.15846735
83	0x3c535b1a	0.012900138
84	0xbd91251d	-0.07087157
85	0xbc01916c	-0.007908206
86	0xbd482d7a	-0.048871495
87	0xbc062c68	-0.008189298
88	0x3cf06c56	0.029348534
89	0x3d682218	0.05667314
90	0xbc4345ef	-0.011918529
91	0xbd01ede6	-0.03172102
92	0xbd890819	-0.06690998
93	0x3e09b32e	0.13447258
94	0xbc524917	-0.012834809
95	0x3da621f0	0.08111942
96	0xbc6a3e4a	-0.014297077
97	0xbdc965ef	-0.098338954
98	0xbd968684	-0.073498756
99	0x3d05cc85	0.03266575
100	0x3d20c257	0.039247837
101	0xbca8e3aa	-0.020616371
102	0xbd6142bf	-0.054995295
103	0xbd7034bb	-0.058644038
104	0xbce65529	-0.02811678
105	0xbddff655	-0.10935656
106	0xbc6c3faf	-0.01441948
107	0xbcf72c35	-0.030172447
108	0xbce62bac	-0.028096996
109	0xbd5d7077	-0.054062333
110	0xbe422e5d	-0.18962999
111	0xbc24a3d9	-0.01004883
112	0xbd20b044	-0.0392306
113	0xbce9d8e4	-0.028545804
114	0x3db2c275	0.08728496
115	0x3c8e6f48	0.017387047
116	0xbc7207aa	-0.014772335
117	0xbd133c36	-0.035946093
118	0x3d7af8eb	0.061272543
119	0x3e1abf8f	0.15112136
120	0xbddd9441	-0.10819293
121	0x38dfdd90	0.00010674738
122	0xbc466039	-0.012107902
123	0x3b44b130	0.0030012839
124	0xbd4a14a6	-0.049336098
125	0xbd91017f	-0.070803635
126	0x3d6a7f49	0.057250295
127	0x3de1ca5b	0.11024924
128	0xbcaa8856	-0.020816963
129	0x3e1effee	0.15527317
130	0xbc7d3856	-0.015455326
131	0xbd883eaf	-0.06652581
132	0x3d279433	0.04091282
133	0xbd0895c1	-0.03334594
134	0xbe25b187	-0.16181003
135	0xbd853a3d	-0.06505249
136	0x3ddf4d77	0.10903447
137	0xbceb3100	-0.028709888
138	0xbcd19c5b	-0.025587251
139	0xbd359174	-0.044328168
140	0x3cca0929	0.024662571
141	0x3d709319	0.058734033
142	0xbc9e99fe	-0.019360539
143	0xbd0f21bf	-0.034944292
144	0xbc15bc30	-0.009139106
145	0xbdfb2a2a	-0.122639015
146	0xbc3da1b0	-0.011574194
147	0xbd08192b	-0.033227127
148	0x3c5229d1	0.012827353
149	0x3c2712d2	0.010197358
150	0x3d49030b	0.049075168
151	0xbcfa1df9	-0.03053187
152	0xbab35a3f	-0.0013683512
153	0xbdafbcfe	-0.08580969
154	0x3ce1e8af	0.027576772
155	0xbddf7899	-0.10911674
156	0x3c942cb3	0.01808772
157	0xbe0fb184	-0.1403256
158	0x3c90984b	0.017650744
159	0xbdc95822	-0.09831263
160	0xbd7d12db	-0.06178556
161	0xbc7e0d96	-0.015506169
162	0x3dfe5d38	0.12420124
163	0x3c4a0db6	0.0123323705
164	0xbdac7ead	-0.08422599
165	0x3c853cfa	0.016264427
166	0x3d98e025	0.07464627
167	0xbdb6d0b8	-0.08926529
168	0x3de3b338	0.11118168
169	0xbda4694a	-0.08027895
170	0x3e1b834c	0.15186805
171	0xbc8127a5	-0.015765974
172	0xbda924cf	-0.08258974
173	0xbbc00388	-0.005859796
174	0xbbc8661e	-0.006115689
175	0xbd77d45f	-0.060505267
176	0xbd9f6831	-0.07783545
177	0xbd9e74f8	-0.07737154
178	0xb8e5cbdf	-0.00010957545
179	0x3d5c710f	0.05381876
180	0xbdd399fe	-0.10332106
181	0xbcbc7287	-0.02300383
182	0x3e21c73a	0.15798655
183	0xbd78ab42	-0.0607102
184	0xbd763be4	-0.06011571
185	0x3de52fb7	0.111907415
186	0x3a4e980b	0.00078809325
187	0xbdd30bc8	-0.103049815
188	0x3d5140ed	0.05108731
189	0xbd87d139	-0.06631703
190	0xbcd8cd75	-0.026465157
191	0xbd542f67	-0.05180302
192	0xbcf07a3a	-0.029355157
193	0xbc935bf5	-0.017988184
194	0xbde63c58	-0.112419784
195	0x3d7077ab	0.058707874
196	0xbd203ed1	-0.039122406
197	0x3ca3bdee	0.019988026
198	0xbd7e3ced	-0.062069822
199	0xbd38e09d	-0.045136083
200	0x3d16a640	0.036779642
201	0x3c04977f	0.00809276
202	0xbc9c07ea	-0.019046742
203	0x3d58631d	0.052828897
204	0x3d9e18f6	0.07719605
205	0xbda40c1d	-0.08010123
206	0x3cd3a4fe	0.02583551
207	0x3d9bb800	0.076034546
208	0xbd913931	-0.070909865
209	0xbd428b09	-0.047495876
210	0x3cd351c7	0.02579583
211	0xbd9f72b4	-0.0778555
212	0x3cf6565c	0.030070476
213	0x3d5ccba8	0.05390516
214	0xbcff6409	-0.03117563
215	0xbca21636	-0.019785982
216	0x3c1b5d69	0.00948272
217	0x3d59a274	0.053133443
218	0xbcf4dd86	-0.029890787
219	0xbd409f8d	-0.04702716
220	0xbd6d3593	-0.05791242
221	0x3e3094f9	0.17244329
222	0x3d19e781	0.037574295
223	0x3d865542	0.065592304
224	0x3bde819d	0.0067903535
225	0xbd7ddde7	-0.0619792
226	0x3e337429	0.1752478
227	0x3d1b5d81	0.03793097
228	0xbdd3f098	-0.10348624
229	0xbd3947fa	-0.045234658
230	0x3e06c907	0.13162623
231	0xbcd3f6e8	-0.02587457
232	0xbd49c0bc	-0.04925607
233	0xbb0f850a	-0.0021899366
234	0x3aac43e1	0.0013142788
235	0xbcac6f72	-0.021049235
236	0xbd8190c6	-0.063264415
237	0x3d2b34c3	0.041798364
238	0xbdd3e03f	-0.10345506
239	0xbdaf29ed	-0.085529186
240	0x3c94fc51	0.01818672
241	0x3d183ec6	0.03716924
242	0x3d182e69	0.037153635
243	0x3db00bab	0.085959755
244	0xbb1bec1b	-0.0023791853
245	0x3dfa605e	0.12225412
246	0xbc9ca842	-0.0191232
247	0xbc98e442	-0.01866353
248	0xbc27bfd6	-0.010238608
249	0x3d9dfd5a	0.077143386
250	0xbe08eedd	-0.13372369
251	0x3daaa07e	0.08331393
252	0xbce0ea7e	-0.027455565
253	0xbdddbac5	-0.10826639
254	0x3d0dcb57	0.034617748
255	0x3d41643e	0.04721474

sequential_1/lstm_1_2/while/lstm_cell_1/add_1/ReadVariableOp f4 [200]
0	0x3ca9bba0	0.02071935
1	0x3adf4b25	0.0017035945
2	0x3b89f05b	0.004209561
3	0xbc2e04fe	-0.010621307
4	0xbca91ba7	-0.020643068
5	0x3c1430a6	0.009044802
6	0xbc187c1e	-0.009306936
7	0x3dbf6a89	0.09346492
8	0x3ce89cb1	0.028395029
9	0xbca1f3dc	-0.019769602
10	0x3b2912c6	0.0025798543
11	0x3bb2c813	0.0054559796
12	0xbc74caae	-0.014940901
13	0xbbbd9a1e	-0.0057861945
14	0xbc26d380	-0.0101822615
15	0xb967d108	-0.00022107747
16	0x36a8fb00	5.0360104e-06
17	0x3c233715	0.009961863
18	0x3c39dc8b	0.011344085
19	0xbc43d779	-0.011953228
20	0x3dd5e406	0.10443883
21	0xbc7054c2	-0.014668645
22	0xbc2afe86	-0.01043666
23	0x3cbacc17	0.022802396
24	0xbc29c7a3	-0.0103625385
25	0x3ccf2e44	0.025290616
26	0x3c9b5232	0.018960092
27	0xbad564b5	-0.0016280623
28	0xbaed7663	-0.0018116947
29	0xbbd6fa11	-0.006560572
30	0x3b7567ad	0.0037445829
31	0x3caa5013	0.020790135
32	0x3bea5dc2	0.00715229
33	0x3c61ff5a	0.013793791
34	0x3a3e0e0d	0.00072500185
35	0x3c422b8b	0.011851202
36	0x3d0276f5	0.031851728
37	0x3cb0b656	0.02157132
38	0xb9864ef9	-0.0002561731
39	0xbba976d2	-0.005171635
40	0xbc467bed	-0.012114507
41	0x3cb05579	0.021525132
42	0xbc15e034	-0.0091476925
43	0x3c3c897e	0.01150739
44	0xbbd38709	-0.0064553064
45	0x3c19ab96	0.009379288
46	0x3c8b349d	0.016992861
47	0x3c114ad3	0.008867937
48	0xbc3bd5cd	-0.011464548
49	0x3ca97264	0.020684429
50	0x3f8115d8	1.0084791
51	0x3f7ba681	0.9830094
52	0x3f7ed0a3	0.99537104
53	0x3f7b7593	0.9822628
54	0x3f7a7ca1	0.9784642
55	0x3f7fd6e4	0.9993727
56	0x3f7c1c3f	0.984806
57	0x3f764781	0.96202856
58	0x3f81220d	1.0088516
59	0x3f7aaf74	0.9792397
60	0x3f7f8d7a	0.9982525
61	0x3f7fa95c	0.99867797
62	0x3f7ae5f2	0.9800712
63	0x3f7d2152	0.9887897
64	0x3f7cdc92	0.98774064
65	0x3f7e46db	0.99326867
66	0x3f7d5881	0.9896317
67	0x3f7eb1e8	0.99490213
68	0x3f7f742b	0.99786633
69	0x3f7add73	0.97994155
70	0x3f777d71	0.96675783
71	0x3f7bba1c	0.98330855
72	0x3f7bd742	0.9837533
73	0x3f7f9bb7	0.99846977
74	0x3f7d61bd	0.9897726
75	0x3f7e3c7a	0.9931103
76	0x3f7d266a	0.9888674
77	0x3f7e6144	0.99367166
78	0x3f7db02b	0.99096936
79	0x3f7c7fa5	0.9863227
80	0x3f7f17bd	0.99645597
81	0x3f7cbc3b	0.98724717
82	0x3f7c433c	0.9854009
83	0x3f8097cb	1.0046324
84	0x3f7b5ebb	0.9819142
85	0x3f804a3a	1.0022652
86	0x3f7e6a56	0.99381006
87	0x3f80e405	1.0069586
88	0x3f7e10c9	0.9924436
89	0x3f7e55c0	0.99349594
90	0x3f7d289a	0.9889008
91	0x3f7f4139	0.99708897
92	0x3f7c944d	0.9866379
93	0x3f75e0b6	0.96046007
94	0x3f7b969a	0.98276675
95	0x3f7f4adc	0.997236
96	0x3f7ccaae	0.98746765
97	0x3f7f9e79	0.99851185
98	0x3f7bf75e	0.9842433
99	0x3f7d6ccd	0.9899414
100	0x3b31f278	0.002715258
101	0xb9fd882f	-0.00048357385
102	0x3b208cd6	0.0024498007
103	0x3ab4b740	0.0013787523
104	0x3bbb8864	0.005723046
105	0x3b0d1737	0.002152873
106	0xbaea02d5	-0.0017853627
107	0xbb9f7dec	-0.004867306
108	0xbb60f40b	-0.0034325148
109	0x3b38637c	0.002813547
110	0xb95b72d4	-0.00020928244
111	0xbb6513d6	-0.003495445
112	0x3b2ec0d5	0.002666523
113	0xbb0f026f	-0.002182152
114	0xbb2dbda5	-0.0026510742
115	0xbaace2b6	-0.0013190124
116	0x3bc54949	0.006020699
117	0xbb0a3617	-0.002108937
118	0x3b420aac	0.0029608412
119	0xbb0492c5	-0.0020229083
120	0x3ad5b6f8	0.0016305139
121	0x3a4f1697	0.00078997895
122	0x3800e7d7	3.0733496e-05
123	0xbb075f83	-0.0020656295
124	0xbb91d539	-0.004450467
125	0x3a863329	0.0010238636
126	0x3b50940f	0.003182653
127	0xbb246328	-0.0025083516
128	0x3b5f9901	0.0034118297
129	0xbb3a87c2	-0.0028462266
130	0xbb0d59b8	-0.002156837
131	0xb85ac9da	-5.216324e-05
132	0x3b67cf0a	0.0035371208
133	0xbb5dbbdf	-0.0033833904
134	0x3a18ddb2	0.0005831375
135	0xbb0574b8	-0.002036376
136	0x3ada38e1	0.0016649031
137	0xbb5b3e53	-0.0033453896
138	0x3a821c41	0.0009926633
139	0xbb8596da	-0.004076821
140	0xbaf20523	-0.0018464666
141	0xbb60647d	-0.0034239583
142	0xbb6d5dac	-0.0036219163
143	0x3a6d0ec2	0.00090430316
144	0x3b2700c3	0.0025482632
145	0xbb17e1a7	-0.002317527
146	0x3b5534a0	0.0032532588
147	0x3b35d91d	0.0027747818
148	0x3ae1bc3e	0.0017222238
149	0x3b364877	0.0027814189
150	0x3ca92153	0.020645773
151	0x3a6e4e6c	0.0009090665
152	0x3b03aec3	0.002009318
153	0xbc2c30d4	-0.010509688
154	0xbcabf347	-0.020990027
155	0x3c03a220	0.008034259
156	0xbc2af63c	-0.010434683
157	0x3dbdc8cc	0.092668146
158	0x3ce28e65	0.02765579
159	0xbc9c8278	-0.019105181
160	0x3a9aee43	0.0011820275
161	0x3b992607	0.0046737227
162	0xbc6a7fb8	-0.014312677
163	0xbbb3e8b2	-0.005490386
164	0xbc261f9e	-0.010139374
165	0xb97920c8	-0.00023758702
166	0xba56405d	-0.0008173043
167	0x3c295672	0.010335552
168	0x3c1f93f5	0.009739866
169	0xbc465060	-0.012104124
170	0x3dbcb27a	0.09213729
171	0xbc737935	-0.014860441
172	0xbc28a8b0	-0.0102941245
173	0x3cb61dd6	0.022231024
174	0xbc2a1715	-0.01038148
175	0x3cbf5512	0.023355994
176	0x3c94f9ea	0.018185575
177	0xbac5494c	-0.0015051751
178	0xbb06c046	-0.0020561381
179	0xbbdf3506	-0.006811741
180	0x3b8260d8	0.00397883
181	0x3c9ccbbe	0.01914012
182	0x3c3592b4	0.01108234
183	0x3c34a233	0.011024999
184	0xbb8062b3	-0.003918016
185	0x3c1dbb8b	0.009627233
186	0x3ceed069	0.029152112
187	0x3caf341a	0.021387149
188	0xb9eb6848	-0.00044900388
189	0xbb5b2367	-0.003343785
190	0xbc47f868	-0.012205221
191	0x3ca93305	0.02065421
192	0xbc15369f	-0.009107261
193	0x3c00fa84	0.007872228
194	0xbbd8b881	-0.0066137915
195	0x3c0e7260	0.008694261
196	0x3c78a754	0.015176613
197	0x3bf4d2ec	0.007471433
198	0xbc3e7856	-0.01162537
199	0x3c94a781	0.018146278
